Model: "sequential"
+--------------------------------------------------------------------------+
| Layer (type)                    | Output Shape           |       Param # |
|---------------------------------+------------------------+---------------|
| mobilenetv2_1.00_160            | (None, 5, 5, 1280)     |     2,257,984 |
| (Functional)                    |                        |               |
|---------------------------------+------------------------+---------------|
| global_average_pooling2d        | (None, 1280)           |             0 |
| (GlobalAveragePooling2D)        |                        |               |
|---------------------------------+------------------------+---------------|
| dropout (Dropout)               | (None, 1280)           |             0 |
|---------------------------------+------------------------+---------------|
| dense (Dense)                   | (None, 128)            |       163,968 |
|---------------------------------+------------------------+---------------|
| dropout_1 (Dropout)             | (None, 128)            |             0 |
|---------------------------------+------------------------+---------------|
| dense_1 (Dense)                 | (None, 1)              |           129 |
+--------------------------------------------------------------------------+
 Total params: 2,750,277 (10.49 MB)
 Trainable params: 164,097 (641.00 KB)
 Non-trainable params: 2,257,984 (8.61 MB)
 Optimizer params: 328,196 (1.25 MB)

